…
        [1., 1., 1.,  ..., 1., 1., 1.]])
tensor([[1., 1., 1.,  ..., 0., 0., 0.],
        [1., 1., 1.,  ..., 0., 0., 0.],
        [1., 1., 1.,  ..., 0., 0., 0.],
        ...,
        [1., 1., 1.,  ..., 1., 1., 1.],
        [1., 1., 1.,  ..., 1., 1., 1.],
        [1., 1., 1.,  ..., 1., 1., 1.]])
tensor([[1., 1., 1.,  ..., 0., 0., 0.],
        [1., 1., 1.,  ..., 0., 0., 0.],
        [1., 1., 1.,  ..., 0., 0., 0.],
        ...,
        [1., 1., 1.,  ..., 1., 1., 1.],
        [1., 1., 1.,  ..., 1., 1., 1.],
        [1., 1., 1.,  ..., 1., 1., 1.]])
Constructed network ImEncoder(
  (encoder): Sequential(
    (0): Block(
      (upchannels): Conv2d(3, 16, kernel_size=(1, 1), stride=(1, 1))
      (seq): Sequential(
        (0): Conv2d(16, 16, kernel_size=(3, 3), stride=(1, 1), padding=(1, 1))
        (1): ReLU()
        (2): Conv2d(16, 16, kernel_size=(3, 3), stride=(1, 1), padding=(1, 1))
        (3): ReLU()
        (4): Conv2d(16, 16, kernel_size=(3, 3), stride=(1, 1), padding=(1, 1))
        (5): ReLU()
      )
    )
    (1): MaxPool2d(kernel_size=(2, 2), stride=(2, 2), padding=0, dilation=1, ceil_mode=False)
    (2): Block(
      (upchannels): Conv2d(16, 64, kernel_size=(1, 1), stride=(1, 1))
      (seq): Sequential(
        (0): Conv2d(64, 64, kernel_size=(3, 3), stride=(1, 1), padding=(1, 1))
        (1): ReLU()
        (2): Conv2d(64, 64, kernel_size=(3, 3), stride=(1, 1), padding=(1, 1))
        (3): ReLU()
        (4): Conv2d(64, 64, kernel_size=(3, 3), stride=(1, 1), padding=(1, 1))
        (5): ReLU()
      )
    )
    (3): MaxPool2d(kernel_size=(2, 2), stride=(2, 2), padding=0, dilation=1, ceil_mode=False)
    (4): Block(
      (upchannels): Conv2d(64, 128, kernel_size=(1, 1), stride=(1, 1))
      (seq): Sequential(
        (0): Conv2d(128, 128, kernel_size=(3, 3), stride=(1, 1), padding=(1, 1))
        (1): ReLU()
        (2): Conv2d(128, 128, kernel_size=(3, 3), stride=(1, 1), padding=(1, 1))
        (3): ReLU()
        (4): Conv2d(128, 128, kernel_size=(3, 3), stride=(1, 1), padding=(1, 1))
        (5): ReLU()
      )
    )
    (5): MaxPool2d(kernel_size=(2, 2), stride=(2, 2), padding=0, dilation=1, ceil_mode=False)
    (6): Flatten()
    (7): Linear(in_features=8192, out_features=128, bias=True)
  )
) ImDecoder(
  (decoder): Sequential(
    (0): Linear(in_features=64, out_features=8192, bias=True)
    (1): ReLU()
    (2): Reshape()
    (3): Upsample(scale_factor=2, mode=bilinear)
    (4): Block(
      (upchannels): Conv2d(128, 128, kernel_size=(1, 1), stride=(1, 1))
      (seq): Sequential(
        (0): ConvTranspose2d(128, 128, kernel_size=(3, 3), stride=(1, 1), padding=(1, 1))
        (1): ReLU()
        (2): ConvTranspose2d(128, 128, kernel_size=(3, 3), stride=(1, 1), padding=(1, 1))
        (3): ReLU()
        (4): ConvTranspose2d(128, 128, kernel_size=(3, 3), stride=(1, 1), padding=(1, 1))
        (5): ReLU()
      )
    )
    (5): Upsample(scale_factor=2, mode=bilinear)
    (6): Block(
      (upchannels): Conv2d(128, 64, kernel_size=(1, 1), stride=(1, 1))
      (seq): Sequential(
        (0): ConvTranspose2d(64, 64, kernel_size=(3, 3), stride=(1, 1), padding=(1, 1))
        (1): ReLU()
        (2): ConvTranspose2d(64, 64, kernel_size=(3, 3), stride=(1, 1), padding=(1, 1))
        (3): ReLU()
        (4): ConvTranspose2d(64, 64, kernel_size=(3, 3), stride=(1, 1), padding=(1, 1))
        (5): ReLU()
      )
    )
    (7): Upsample(scale_factor=2, mode=bilinear)
    (8): Block(
      (upchannels): Conv2d(64, 60, kernel_size=(1, 1), stride=(1, 1))
      (seq): Sequential(
        (0): ConvTranspose2d(60, 60, kernel_size=(3, 3), stride=(1, 1), padding=(1, 1))
        (1): ReLU()
        (2): ConvTranspose2d(60, 60, kernel_size=(3, 3), stride=(1, 1), padding=(1, 1))
        (3): ReLU()
        (4): ConvTranspose2d(60, 60, kernel_size=(3, 3), stride=(1, 1), padding=(1, 1))
        (5): ReLU()
      )
    )
    (9): ConvTranspose2d(60, 64, kernel_size=(1, 1), stride=(1, 1))
    (10): Sigmoid()
  )
) LGated(
  (conv1): Conv2d(3, 60, kernel_size=(1, 1), stride=(1, 1), groups=3)
  (gated_layers): ModuleList(
    (0): LMaskedConv2d(
      (vertical): Conv2d(60, 120, kernel_size=(7, 7), stride=(1, 1), padding=(3, 3), bias=False)
      (horizontal): Conv2d(60, 120, kernel_size=(1, 7), stride=(1, 1), padding=(0, 3), bias=False)
      (tohori): Conv2d(120, 120, kernel_size=(1, 1), stride=(1, 1), groups=3, bias=False)
      (tores): Conv2d(60, 60, kernel_size=(1, 1), stride=(1, 1), groups=3, bias=False)
      (vhf): Conv2d(64, 60, kernel_size=(1, 1), stride=(1, 1))
      (vhg): Conv2d(64, 60, kernel_size=(1, 1), stride=(1, 1))
      (vvf): Conv2d(64, 60, kernel_size=(1, 1), stride=(1, 1))
      (vvg): Conv2d(64, 60, kernel_size=(1, 1), stride=(1, 1))
    )
    (1): LMaskedConv2d(
      (vertical): Conv2d(60, 120, kernel_size=(7, 7), stride=(1, 1), padding=(3, 3), bias=False)
      (horizontal): Conv2d(60, 120, kernel_size=(1, 7), stride=(1, 1), padding=(0, 3), bias=False)
      (tohori): Conv2d(120, 120, kernel_size=(1, 1), stride=(1, 1), groups=3, bias=False)
      (tores): Conv2d(60, 60, kernel_size=(1, 1), stride=(1, 1), groups=3, bias=False)
      (vhf): Conv2d(64, 60, kernel_size=(1, 1), stride=(1, 1))
      (vhg): Conv2d(64, 60, kernel_size=(1, 1), stride=(1, 1))
      (vvf): Conv2d(64, 60, kernel_size=(1, 1), stride=(1, 1))
      (vvg): Conv2d(64, 60, kernel_size=(1, 1), stride=(1, 1))
    )
    (2): LMaskedConv2d(
      (vertical): Conv2d(60, 120, kernel_size=(7, 7), stride=(1, 1), padding=(3, 3), bias=False)
      (horizontal): Conv2d(60, 120, kernel_size=(1, 7), stride=(1, 1), padding=(0, 3), bias=False)
      (tohori): Conv2d(120, 120, kernel_size=(1, 1), stride=(1, 1), groups=3, bias=False)
      (tores): Conv2d(60, 60, kernel_size=(1, 1), stride=(1, 1), groups=3, bias=False)
      (vhf): Conv2d(64, 60, kernel_size=(1, 1), stride=(1, 1))
      (vhg): Conv2d(64, 60, kernel_size=(1, 1), stride=(1, 1))
      (vvf): Conv2d(64, 60, kernel_size=(1, 1), stride=(1, 1))
      (vvg): Conv2d(64, 60, kernel_size=(1, 1), stride=(1, 1))
    )
    (3): LMaskedConv2d(
      (vertical): Conv2d(60, 120, kernel_size=(7, 7), stride=(1, 1), padding=(3, 3), bias=False)
      (horizontal): Conv2d(60, 120, kernel_size=(1, 7), stride=(1, 1), padding=(0, 3), bias=False)
      (tohori): Conv2d(120, 120, kernel_size=(1, 1), stride=(1, 1), groups=3, bias=False)
      (tores): Conv2d(60, 60, kernel_size=(1, 1), stride=(1, 1), groups=3, bias=False)
      (vhf): Conv2d(64, 60, kernel_size=(1, 1), stride=(1, 1))
      (vhg): Conv2d(64, 60, kernel_size=(1, 1), stride=(1, 1))
      (vvf): Conv2d(64, 60, kernel_size=(1, 1), stride=(1, 1))
      (vvg): Conv2d(64, 60, kernel_size=(1, 1), stride=(1, 1))
    )
    (4): LMaskedConv2d(
      (vertical): Conv2d(60, 120, kernel_size=(7, 7), stride=(1, 1), padding=(3, 3), bias=False)
      (horizontal): Conv2d(60, 120, kernel_size=(1, 7), stride=(1, 1), padding=(0, 3), bias=False)
      (tohori): Conv2d(120, 120, kernel_size=(1, 1), stride=(1, 1), groups=3, bias=False)
      (tores): Conv2d(60, 60, kernel_size=(1, 1), stride=(1, 1), groups=3, bias=False)
      (vhf): Conv2d(64, 60, kernel_size=(1, 1), stride=(1, 1))
      (vhg): Conv2d(64, 60, kernel_size=(1, 1), stride=(1, 1))
      (vvf): Conv2d(64, 60, kernel_size=(1, 1), stride=(1, 1))
      (vvg): Conv2d(64, 60, kernel_size=(1, 1), stride=(1, 1))
    )
  )
  (conv2): Conv2d(60, 768, kernel_size=(1, 1), stride=(1, 1), groups=3)
)
  0%|          | 0/1406 [00:00<?, ?it/s]/home/ar5g15/miniconda3/lib/python3.6/site-packages/torch/nn/modules/upsampling.py:129: UserWarning: nn.Upsample is deprecated. Use nn.functional.interpolate instead.
  warnings.warn("nn.{} is deprecated. Use nn.functional.interpolate instead.".format(self.name))
/home/ar5g15/miniconda3/lib/python3.6/site-packages/torch/nn/functional.py:2423: UserWarning: Default upsampling behavior when mode=bilinear is changed to align_corners=False since 0.4.0. Please specify align_corners=True if the old behavior is desired. See the documentation of nn.Upsample for details.
…
